project_1/Code/new_2/theta_ridge.npy (npy, 744 bytes, 1 tensors)

array f8 [7, 11, 1]
000000 00 00 00 00 00 00 00 00 50 3f 1c 0a ea cf 52 3f
       0.0 0.00114820342463769
000010 be 38 72 2a f0 d9 06 c0 a0 db 3c b5 b4 90 70 bf
       -2.8564151111705476 -0.004044252291172251
000020 63 4a 26 c3 b0 50 27 40 b0 f4 47 8d 66 37 ab bf
       11.657598589347975 -0.05315704798338439
000030 df 84 f4 2a 81 af 35 c0 b4 f7 20 7e a8 59 c6 3f
       -21.685564694115666 0.17461115034705943
000040 46 1e 95 f8 de be 32 40 dc 29 b7 cc 0f 96 bd bf
       18.74558976784308 -0.11557101009308418
000050 fa 31 58 59 3b 6d 18 c0 00 00 00 00 00 00 00 00
       -6.106671710975656 0.0
000060 50 9b fb 19 75 b4 56 3f a6 ed 4f ff 65 81 06 c0
       0.0013857978410045275 -2.8131828256861864
000070 00 66 ca 75 c8 c9 79 bf f2 f5 81 8f d8 ad 26 40
       -0.0062959509347364495 11.339542851080271
000080 b0 20 bb 7c 2d 2a a7 bf 21 d8 c9 a1 2e dd 34 c0
       -0.04524366519541567 -20.86399279764021
000090 54 f6 63 f2 d8 f5 c4 3f 79 38 45 ab 18 dd 31 40
       0.16375266871902971 17.863657669448433
0000a0 50 32 39 c5 63 4c bc bf 86 0e e1 d9 42 15 17 c0
       -0.11054061474823951 -5.770762829171536
0000b0 00 00 00 00 00 00 00 00 d8 b0 80 36 d6 77 67 3f
       0.0 0.002864759811947431
0000c0 aa 65 c0 75 d8 26 04 c0 88 f0 80 d8 c1 ea 94 bf
       -2.5189675521221107 -0.020426777686438885
0000d0 50 4d e4 7e 3d 5c 22 40 80 d3 c4 08 77 60 74 3f
       9.180156674736878 0.004974808671524111
0000e0 da 5c c0 91 1a 97 2e c0 78 d3 d8 40 62 23 b8 3f
       -15.295124582988525 0.09428991397073883
0000f0 ad ea 50 39 18 c9 27 40 d8 92 bb 34 42 03 b4 bf
       11.89276293862107 -0.07817472255153335
000100 d4 fa 8e 02 3e fd 0b c0 00 00 00 00 00 00 00 00
       -3.4986534309276554 0.0
000110 76 5b 89 e8 89 4b 70 3f df 55 13 d9 c8 51 ff bf
       0.003978289322353548 -1.9574669341576436
000120 56 89 62 2e c3 1d a1 bf cf 50 91 b9 61 bb 14 40
       -0.03343019429418585 5.182989978308071
000130 b8 4b 94 7e f2 7c ad 3f 52 cb b4 b5 f0 d2 14 c0
       0.057593896819660484 -5.205996359977535
000140 c0 0f 34 59 79 ef 8f 3f 57 82 a9 0d 0f f6 f3 3f
       0.015593479189654036 1.2475729497602026
000150 b2 88 f2 e8 e9 45 a4 bf 73 87 19 c4 75 0f e0 3f
       -0.039595899282418925 0.5018872098992077
000160 00 00 00 00 00 00 00 00 8c 3d 92 9b 2c 49 58 3f
       0.0 0.0014822898504326136
000170 88 6e 18 26 5d 66 f8 bf ad d0 74 cd 12 86 9c bf
       -1.524991177377986 -0.027855199613626414
000180 6c 7a 3f 17 9e 65 08 40 0b 65 07 62 f5 91 a7 3f
       3.049617940544797 0.046035450188080494
000190 4d 07 3f 8c 31 7f f8 bf d0 ec f7 b8 13 70 9f 3f
       -1.5310531118743314 0.03070097748239392
0001a0 ce 5f 46 2b cc 3a f4 bf d9 0e 4d b6 fe 49 a8 bf
       -1.2643548670221096 -0.04743953681329822
0001b0 21 e1 b9 de 2a ae f0 3f 00 00 00 00 00 00 00 00
       1.0425213527906367 0.0
0001c0 0a b3 ad 5c 53 8e 7e bf f6 22 cf 29 ce d4 ee bf
       -0.007459951050674327 -0.9634772125801578
0001d0 f7 c5 93 4e e4 97 78 bf 46 b4 5d c4 70 87 f1 3f
       -0.0060042303314147205 1.0955665274189115
0001e0 c9 29 36 c3 00 a8 a0 3f bc 4d 38 64 1a 51 85 3f
       0.03253176100686834 0.010408598121137362
0001f0 1a 77 30 7b 17 fd 90 3f 54 de d3 11 97 ff d5 bf
       0.016590468305472596 -0.3437249826524511
000200 0a 3c f4 56 b1 d3 a1 bf 98 7c b6 d3 be 6c 96 bf
       -0.034818212379939054 -0.021899205848623454
000210 00 00 00 00 00 00 00 00 10 03 74 9b bf 1b 8a bf
       0.0 -0.012748238498262704
000220 72 9d 7b 9e 4f cb e1 bf 7e 85 cc c9 a4 74 8a 3f
       -0.5560682387703493 0.012917792709745465
000230 a4 89 e5 50 e4 8a d1 3f 32 6c 3b ab 36 75 8b 3f
       0.27410228633939426 0.013407160854901876
000240 0b 05 83 0a 39 f1 c8 3f 74 93 7f bd 1c 17 5e 3f
       0.1948615361525657 0.0018365650812423836
000250 da 75 51 d1 4b ba 91 3f e6 9c 15 2e ec 80 8a bf
       0.01731222596241886 -0.012941212803254176
000260 7c a4 06 5a ef 18 c0 bf
       -0.12576095481680116
